backend/saved_model_assets/gnn_model_state.pth (torch, 236594 bytes, 12 tensors)

encoder.conv1.convs.<user___stars___repo>.lin_l.weight f4 [64, 128]
0	0x3e0bee0b	0.13665025
1	0x3d2c09ce	0.042001538
2	0x3e256f5b	0.1615576
3	0x3e129eba	0.14318362
4	0x3e1b5450	0.15168881
5	0x3dba1179	0.09085364
6	0x3dd33e58	0.103146255
7	0x3dd7bcf0	0.10534084
8	0x3e3d6b76	0.18498024
9	0x3c7a55a7	0.01527921
10	0x3d031958	0.03200659
11	0xbc40b2d5	-0.011761387
12	0x3c79e413	0.015252131
13	0x3e1e2b42	0.15446189
14	0xbb1e105f	-0.0024118645
15	0x3db7f0d2	0.0898148
16	0x3dab6bdf	0.08370184
17	0x3dd1b34c	0.10239276
18	0x3db63546	0.0889688
19	0x3e2fba4e	0.17160913
20	0x3cc890b6	0.024483066
21	0x3e5960e1	0.21228363
22	0x3e2a375d	0.16622682
23	0x3e13b937	0.14426123
24	0x3d741638	0.059591502
25	0x3e227a0a	0.15866867
26	0x3df49962	0.11943318
27	0x3d2e67fb	0.042579632
28	0xbd905f14	-0.07049385
29	0x3e17f70e	0.14840338
30	0x3e261c8e	0.1622183
31	0x3dea3443	0.114357494
32	0x3e257db1	0.16161229
33	0x3e09521e	0.13410231
34	0x3da29337	0.07938235
35	0xbd0c6e6a	-0.034284987
36	0x3df1cc07	0.11806493
37	0x3db387bc	0.08766124
38	0x3ce9298e	0.028462198
39	0x3dc91d1c	0.09820005
40	0x3dd75e78	0.10516065
41	0x3cea3376	0.028588992
42	0x3c2d1652	0.010564404
43	0x3e07dbb7	0.13267408
44	0x3e26b416	0.16279635
45	0x3e3b7d45	0.18309505
46	0x3dcaf3c5	0.099097766
47	0xbc940317	-0.01806788
48	0x3cb85429	0.022501068
49	0x3df9647f	0.12177371
50	0x3d8097b0	0.06278932
51	0x3de32c3c	0.110924214
52	0x3de01149	0.10940797
53	0x3d21f257	0.039537754
54	0xbc9eb710	-0.0193744
55	0x3deb04f7	0.11475556
56	0x3e32ad8a	0.17449012
57	0x3d783f0f	0.060607012
58	0x3e2d5bf8	0.16929615
59	0x3c5a8048	0.013336249
60	0x3dc72933	0.09724655
61	0x3e1e504f	0.15460323
62	0x3dd9f8b9	0.10643143
63	0x3d0d0a81	0.034433845
64	0x3e7a9624	0.24471337
65	0x3e3d195d	0.18466707
66	0x3e182a03	0.14859776
67	0x3dc9b058	0.09848088
68	0xbd2b5fcd	-0.04183941
69	0x3db493c8	0.088172495
70	0x3e0b8cd1	0.13627936
71	0x3e00df42	0.12585166
72	0x3dd5f40e	0.1044694
73	0x3dcb64df	0.09931349
74	0x3d10c229	0.035341416
75	0x3d4e025f	0.05029523
76	0x3e26ea5d	0.1630034
77	0x3ddec876	0.10878079
78	0x3e52df43	0.2059298
79	0x3db15500	0.086587906
80	0x3e006d4c	0.12541693
81	0x3e322bea	0.17399564
82	0x3dea989a	0.11454888
83	0x3d6d46c8	0.05792883
84	0x3da0fb6d	0.07860456
85	0x3ddf2954	0.108965546
86	0xbce5e553	-0.028063452
87	0x3dc037ab	0.09385618
88	0x3daaf8ce	0.08348237
89	0x3e2b2a01	0.16715242
90	0x3ae62557	0.0017558736
91	0x3df881c2	0.12134124
92	0x3cbbdb42	0.022931699
93	0x3e151d22	0.14561895
94	0xbcdfd1d5	-0.027321735
95	0x3d9501de	0.07275747
96	0x3d5a64f5	0.053318936
97	0x3e2094a6	0.15681705
98	0x3d8c2a32	0.068439856
99	0x3d5a7c56	0.053341232
100	0xbcb47fbd	-0.022033567
101	0x3d99fa5f	0.075184576
102	0x3e5cb26f	0.21552442
103	0x3e357a2b	0.17722385
104	0x3d9649b3	0.07338276
105	0x3e15f9c7	0.14646064
106	0x3d61aa14	0.05509384
107	0x3ccfe222	0.025376383
108	0x3daf4888	0.08558756
109	0x3e04abf9	0.12956227
110	0x3e160c65	0.14653166
111	0x3cfaea19	0.030629205
112	0x3c40957e	0.011754392
113	0x3e15f1bf	0.14643
114	0xbb8e7a55	-0.004348079
115	0x3df6ea08	0.12056357
116	0x3d80192b	0.062548004
117	0xbd64e96d	-0.055886675
118	0x3e0a1030	0.13482738
119	0xbd3a1e28	-0.045438915
120	0x3e38e69a	0.18056718
121	0x3d9722cf	0.07379686
122	0x3e1554eb	0.14583175
123	0x3e862de6	0.26206893
124	0x3dea950e	0.11454211
125	0x3d4a5eab	0.04940669
126	0x3d63721e	0.055528753
127	0x3bb3ec55	0.0054908195
128	0x3db6a146	0.08917479
129	0x3da88552	0.08228554
130	0xbbc8725e	-0.0061171493
131	0x3dcf7162	0.10129048
132	0x3dbc330f	0.09189426
133	0x3d3d0adc	0.046152934
134	0x3dee0161	0.11621357
135	0x3de3e6ae	0.11127983
136	0x3d4b300c	0.049606368
137	0x3d98a564	0.07453421
138	0x3ddff7e1	0.10935951
139	0x3daa131e	0.083044276
140	0x3da48564	0.08033255
141	0x3d595e21	0.053068284
142	0x3dead640	0.11466646
143	0x3e25d778	0.16195476
144	0x3c1e9e72	0.009681331
145	0x3de87567	0.11350518
146	0x3d992db3	0.074794196
147	0x3dc6b562	0.09702565
148	0x3d97b216	0.07407014
149	0x3da3939c	0.07987139
150	0x3d3937f1	0.045219366
151	0x3deaad3c	0.11458823
152	0x3d7d11d8	0.061784595
153	0x3e139251	0.14411284
154	0xbcf17c4f	-0.02947822
155	0x3d55a0d4	0.05215533
156	0x3d9e57ca	0.07731588
157	0x3d4bfdd7	0.049802627
158	0x3c98fca4	0.018675156
159	0x3dfd0c35	0.12355844
160	0x3da5b942	0.08091976
161	0xbc7e84cb	-0.01553459
162	0x3da5bffb	0.08093258
163	0x3e46f7e4	0.194305
164	0x3e1c1f08	0.15246212
165	0x3d2cb559	0.042165134
166	0x3c26b7c4	0.010175649
167	0x3de82a7b	0.113362275
168	0x3e07979f	0.13241433
169	0x3d2d4aa6	0.04230752
170	0x3e1c272e	0.15249321
171	0x3d305ca4	0.0430571
172	0x3d32792f	0.0435726
173	0x3dd9d517	0.10636347
174	0x3b981d45	0.004642161
175	0xbcb04390	-0.021516591
176	0x3d2bbd66	0.04192867
177	0x3c87067f	0.01648259
178	0x3dacb0e9	0.084321804
179	0x3d158de0	0.036512256
180	0x3c8cd9c0	0.017193675
181	0x3db92489	0.09040172
182	0x3e32f795	0.17477258
183	0x3d167ed4	0.036742046
184	0xbc56c92f	-0.013109489
185	0x3cae7c8a	0.02129962
186	0x3b52dc1e	0.0032174657
187	0x3b1f9ee1	0.0024356174
188	0x3d3abff2	0.04559321
189	0x3d80646b	0.06269153
190	0x3d9f24ec	0.07770714
191	0x3e07d677	0.13265406
192	0x3d8836be	0.06651066
193	0x3d29747d	0.041370858
194	0xbca507ce	-0.020145323
195	0x3e2c15c2	0.16805175
196	0x3c4be577	0.012444845
197	0x3da38db7	0.07986014
198	0x3da41d68	0.08013421
199	0x3cdb928d	0.02680328
200	0x3dcc30a5	0.09970216
201	0x3d25f18a	0.040513553
202	0xbd6b844a	-0.057499208
203	0x3db3f4b1	0.087869056
204	0xbc51d940	-0.012808144
205	0x3cd6f01b	0.026237538
206	0xbd2b7036	-0.04185506
207	0x3dab0285	0.0835009
208	0x3dce46b0	0.10072076
209	0xbc9e06e3	-0.019290393
210	0xbc7902b9	-0.015198403
211	0x3e3c0e6f	0.18364881
212	0x3d202d72	0.03910584
213	0x3cc7fcaf	0.024412481
214	0x3cd2587f	0.025676964
215	0x3d0f6d18	0.03501615
216	0x3d52fa8c	0.05150847
217	0x3d998024	0.07495144
218	0x3c8642cb	0.016389271
219	0x3dae1f97	0.08502119
220	0x3e0ad877	0.13559137
221	0x3dcc24f3	0.09967985
222	0x3cfd830e	0.03094628
223	0x3da00db1	0.078151114
224	0x3d067ea9	0.032835636
225	0x3dd5fc69	0.10448534
226	0x3a8b9d0b	0.0010651661
227	0x3b45a8b1	0.0030160362
228	0x3dcab115	0.09897057
229	0x3e1f5364	0.15559155
230	0xbe0f03c1	-0.13966276
231	0x3df81daf	0.12115037
232	0x3d19dd3b	0.037564497
233	0xbd88faef	-0.06688487
234	0x3dc5602e	0.096374854
235	0xbc32aae8	-0.010905005
236	0x3cf5ed81	0.030020477
237	0x3d82e1f7	0.063907556
238	0x3df6c884	0.12049964
239	0x3dddf55b	0.108378135
240	0x3c8c8c3e	0.017156716
241	0xbb6d3600	-0.0036195517
242	0x3dd8da4e	0.10588513
243	0x3e0468b6	0.12930569
244	0x3e183ca9	0.1486689
245	0x3bb1024c	0.005401885
246	0x3da4cbd6	0.08046691
247	0x3e04a3ec	0.12953156
248	0x3de0d822	0.10978724
249	0x3dd9454d	0.10608921
250	0x3cf8365c	0.030299358
251	0x3dc1a37a	0.09455009
252	0x3dbfd413	0.09366622
253	0xba106c0e	-0.00055092655
254	0x3e2c6593	0.16835622
255	0x3db9d0d2	0.090730324

encoder.conv1.convs.<user___stars___repo>.lin_l.bias f4 [64]
0	0x3c92765a	0.0178787
1	0xbb8dc271	-0.0043261577
2	0xbca7801f	-0.020446835
3	0x3e3e76cd	0.18600006
4	0xbc9c1922	-0.019054953
5	0x3d8c43e8	0.068488896
6	0xbc435afa	-0.011923546
7	0x3db7340c	0.08945474
8	0xbcb9837e	-0.022645708
9	0x3caf8d7c	0.02142977
10	0xbe916375	-0.28396192
11	0xbe1e7b8a	-0.15476814
12	0xbdff8288	-0.12476069
13	0xbe6aef56	-0.22942862
14	0xbe0059d0	-0.12534261
15	0x3e3c4415	0.18385346
16	0xbdbd8b62	-0.09255101
17	0x3e0a4915	0.13504441
18	0xbe9dbe83	-0.3080941
19	0x3d6fe809	0.058570895
20	0x3e31a79d	0.17349096
21	0x3d5acd18	0.05341825
22	0xbe3420ac	-0.17590588
23	0x3d0045d4	0.031316593
24	0x3e022028	0.12707579
25	0xbdc20358	-0.09473294
26	0x3d474c2d	0.04865663
27	0x3e75a55a	0.23988858
28	0x3dc74bac	0.0973123
29	0x3dba3451	0.0909201
30	0xbda3562f	-0.079754226
31	0xbba50607	-0.005036119
32	0xbd563eff	-0.05230617
33	0xbbb359db	-0.005473358
34	0xbdd5b005	-0.10433964
35	0x3d86ebdb	0.065879546
36	0xbe80733a	-0.2508791
37	0xbdca0baa	-0.09865506
38	0x3de12284	0.109929115
39	0xbdc5a4a2	-0.09650542
40	0x3df4edba	0.11959405
41	0x3e2a6c7a	0.16642943
42	0xbeb700a5	-0.3574268
43	0xbdfd5ef0	-0.123716235
44	0x3e74f8cc	0.23923033
45	0x3dc4db39	0.09612126
46	0x3da27065	0.07931594
47	0x3dd4d4da	0.10392161
48	0xbe232cb5	-0.15935023
49	0xbcc66259	-0.024216818
50	0xbe799014	-0.24371368
51	0x3dc73b8e	0.09728156
52	0x3e3992ad	0.18122359
53	0x3efe90eb	0.4971994
54	0xbd263833	-0.04058094
55	0xbe5bf750	-0.21481061
56	0x3e5c4e1b	0.2151417
57	0x3df2cd48	0.118555605
58	0x3e6beccc	0.2303955
59	0xbe65a108	-0.2242471
60	0xbc3e29b7	-0.011606625
61	0xbd4e04ae	-0.05029743
62	0xbdcef693	-0.10105624
63	0x3c9e9349	0.01935734

encoder.conv1.convs.<user___stars___repo>.lin_r.weight f4 [64, 257]
0	0xbd185dba	-0.03719876
1	0xbc8c040a	-0.01709177
2	0x3e0a7701	0.13521959
3	0xbc48f3ff	-0.012265204
4	0x3e015df2	0.12633494
5	0x3d89b4d5	0.06723944
6	0xbdfcfd18	-0.12352961
7	0x3ea4c8c9	0.32184437
8	0x3e15cded	0.14629336
9	0xbd481019	-0.048843477
10	0x3e1d8a7f	0.15384863
11	0x3c8e47a1	0.01736814
12	0x3cb27540	0.021784425
13	0x3e578823	0.21048026
14	0x3d2efa69	0.04271928
15	0x3e83ab5e	0.2571668
16	0xbcacf9e5	-0.021115253
17	0x3de0d98b	0.10978993
18	0xbd42e1cc	-0.047578618
19	0x3d2dce6f	0.0424332
20	0x3c4ef41e	0.012631444
21	0xbcea5cef	-0.028608767
22	0xbd60a4c0	-0.054844618
23	0x3d3190ee	0.043351106
24	0xbd276e72	-0.040876813
25	0x3e6165ea	0.22011533
26	0xbc9b27e8	-0.018939927
27	0xbc232820	-0.009958297
28	0xbbce69e5	-0.0062992447
29	0xbd579b57	-0.052638378
30	0x3d5ec884	0.054390445
31	0x3abe80fa	0.0014534288
32	0x3da38ced	0.07985864
33	0xbb6b5016	-0.003590589
34	0x3cee68c6	0.029102694
35	0xbd54f357	-0.05198988
36	0x3d121687	0.035666015
37	0xbccc2adc	-0.02492278
38	0x3d6ced07	0.057843234
39	0x3e17e726	0.1483427
40	0xbc80d227	-0.015725208
41	0x3e1180a2	0.14209226
42	0x3c833e18	0.01602082
43	0xbd3942c6	-0.045229696
44	0x3d6bda61	0.05758131
45	0xbd6450ec	-0.055741236
46	0xbd652f5e	-0.055953376
47	0x3dc423d1	0.09577144
48	0xbc30164b	-0.010747503
49	0xbd47d2e8	-0.04878512
50	0x3df1c3a5	0.11804894
51	0x3ddeeda1	0.10885168
52	0x3c584ecc	0.01320238
53	0x3e428661	0.18996574
54	0x3e804251	0.25050595
55	0xbd480604	-0.048833862
56	0xbbac9676	-0.00526696
57	0x3d9fb9b8	0.07799095
58	0x3e250168	0.16113818
59	0xbd4bd997	-0.049768057
60	0x3d5fef6b	0.054671686
61	0xbd167a3b	-0.03673766
62	0x3e66550f	0.22493385
63	0x3c6f700c	0.014614116
64	0x3e37995a	0.17929593
65	0xbce7dc93	-0.02830342
66	0xbd867b05	-0.06566433
67	0xbd55c11c	-0.052186117
68	0x3bbe3d14	0.005805621
69	0x3e6fc965	0.2341667
70	0x3ceae8da	0.028675485
71	0x3e1d0748	0.15334809
72	0xbb7bd854	-0.0038428502
73	0x3c62827b	0.013825054
74	0xbd3e4f51	-0.04646236
75	0x3d17e252	0.03708107
76	0x3d87a2b1	0.06622828
77	0x3db88337	0.09009402
78	0x3d13641d	0.035984147
79	0x3e52e60a	0.20595565
80	0x3b2686d2	0.002540995
81	0x3d0e119f	0.034684774
82	0xbbb1e295	-0.005428622
83	0x3c071190	0.008243933
84	0x3f088141	0.53322226
85	0x3a24954a	0.00062783493
86	0x3cb01f0b	0.021499177
87	0x3d84ba19	0.06480808
88	0x3d210a73	0.039316606
89	0xbdf4ff86	-0.119628
90	0x3c8a2472	0.016863082
91	0xbcf3a648	-0.029742375
92	0x3cf305a0	0.029665768
93	0x3ce4a1e4	0.027909227
94	0x3b8ae0d1	0.004238226
95	0x3e5e8e63	0.21734004
96	0xbb953508	-0.004553441
97	0x3ceb2d67	0.028708173
98	0xbd562590	-0.052281916
99	0x3ed49833	0.4152237
100	0x3d7727cf	0.0603407
101	0x3e00a1a3	0.1256166
102	0xbc05dfb9	-0.008171015
103	0x3c39980b	0.011327754
104	0x3ce6f118	0.028191134
105	0x3d2ac16b	0.041688364
106	0x3b38570c	0.0028128056
107	0x3e118705	0.14211662
108	0x3c428f31	0.01187496
109	0xbd143bb1	-0.03618974
110	0x3d9ed852	0.077561036
111	0xbd1839da	-0.037164547
112	0x3e0a25d4	0.13490993
113	0x3da35947	0.07976013
114	0x3d830663	0.063977025
115	0x3e821f7c	0.25414646
116	0xbcbc4326	-0.022981238
117	0x3e140c9c	0.14457935
118	0xbd40e170	-0.047089994
119	0xbd016191	-0.031587187
120	0x3ddb8a1e	0.10719703
121	0x3d0cde11	0.034391467
122	0x3decc3c0	0.11560774
123	0x3d9c8745	0.07642988
124	0x3e20dc7e	0.15709111
125	0xb94fee23	-0.00019829771
126	0xba7abe40	-0.00095650926
127	0x3e82660f	0.2546849
128	0x3d45cd66	0.048291586
129	0xbbaf45e3	-0.0053489073
130	0xbc64f6d1	-0.013974861
131	0x39917359	0.00027742496
132	0x3cc8ca98	0.024510667
133	0xbd4af835	-0.049553115
134	0xbd3a5bf7	-0.04549786
135	0x3ca9179a	0.020641137
136	0x3cf99edc	0.030471258
137	0xbcb28677	-0.021792633
138	0xbd2f2020	-0.042755246
139	0xbd57a375	-0.05264612
140	0x3d4931d6	0.049119793
141	0x3d3e7eed	0.046507765
142	0xbd0e6fc4	-0.034774557
143	0x3d010870	0.031502187
144	0x3d342dde	0.043989055
145	0x3d169089	0.036758933
146	0x3d6aa2b4	0.057284072
147	0x3cf15564	0.029459663
148	0x3c9e5dcd	0.019331837
149	0xbcc04a4b	-0.023472926
150	0x3ce55f51	0.027999552
151	0xbd1b2d8f	-0.037885245
152	0x3c15594e	0.00911553
153	0x3bd868d7	0.0066042948
154	0x3d757c47	0.059932973
155	0x3b06d5a6	0.0020574122
156	0x3d401080	0.046890736
157	0xbcc86290	-0.02446106
158	0x3d3e795f	0.046502467
159	0xbb869357	-0.0041069197
160	0x3ceea8e2	0.029133264
161	0xb9c54a74	-0.0003763024
162	0x3cb8ae2c	0.02254399
163	0x3d1463b5	0.0362279
164	0x3c58f8c7	0.013242907
165	0xbd272716	-0.04080876
166	0x3d6f613c	0.05844234
167	0x3d4cea59	0.05002818
168	0xbbc2181c	-0.005923284
169	0x3cbb6034	0.022873022
170	0x3b8100e0	0.003936872
171	0x3cfde010	0.03099063
172	0xbcd647df	-0.026157318
173	0xbd60d9f1	-0.054895345
174	0x3d8f77e7	0.070052914
175	0xbd054b45	-0.032542486
176	0x3bc4a347	0.0060009095
177	0x3dc8c46b	0.09803089
178	0xbcd9acf5	-0.02657173
179	0x3cc5b8c5	0.024135957
180	0xbd779d82	-0.060452946
181	0x3d0deabd	0.034647692
182	0x3ccd0a09	0.0250292
183	0x3d8da50f	0.06916248
184	0x3d931399	0.07181472
185	0x3d754ac0	0.05988574
186	0x3d916574	0.07099429
187	0xbd06bace	-0.032892995
188	0xbc0a54c7	-0.008443064
189	0x3d078a36	0.033090793
190	0xbb860ee9	-0.004091133
191	0xbd64ae7c	-0.055830464
192	0x3c1301da	0.008972609
193	0x3d5e4354	0.054263428
194	0x3d08ce36	0.033399783
195	0xbd7a1ff2	-0.06106562
196	0x3d2ccbce	0.04218655
197	0x3d19e0a1	0.03756774
198	0x3ccb3f8a	0.024810571
199	0xbd15a803	-0.03653718
200	0xba8f7e93	-0.0010947756
201	0x3d1530d4	0.03642352
202	0xbd790973	-0.060800027
203	0xbd296c77	-0.041363206
204	0xbd7550e4	-0.059891596
205	0xbd2fd0b6	-0.04292365
206	0x3c3eddf9	0.011649602
207	0xbd347f11	-0.044066492
208	0x3c2487e9	0.010042169
209	0xbbc5f80d	-0.006041533
210	0x3c7f0f21	0.015567572
211	0x3d04acd8	0.0323914
212	0xbd1da585	-0.03848793
213	0xbcd89ffb	-0.026443472
214	0x3c2dd69b	0.010610248
215	0x3d322908	0.04349616
216	0x3d8bd4c2	0.0682769
217	0xbd6e7f03	-0.058226597
218	0xbd4027b4	-0.046912864
219	0xbc9eb004	-0.01937104
220	0x3ad76aa6	0.0016434982
221	0x3e0c2186	0.13684663
222	0x3e36ef5b	0.17864744
223	0x3cf15146	0.0294577
224	0xbcae4882	-0.021274809
225	0xbd1947b1	-0.037421886
226	0x3d57da78	0.052698582
227	0xbd50900e	-0.05091863
228	0xbbf8f8c3	-0.007598014
229	0x3c468eba	0.01211899
230	0xbd7a7ba2	-0.06115306
231	0x3d50125b	0.050798755
232	0xbd61ff5d	-0.055175174
233	0xbc9302f1	-0.017945739
234	0x3cca37b6	0.024684768
235	0xbc7e819f	-0.015533834
236	0xbd1a5fe9	-0.037689123
237	0xbb623363	-0.0034515492
238	0x3d5373cb	0.0516241
239	0xbd6c4722	-0.057685025
240	0x3c9934b5	0.01870189
241	0xbcd3b500	-0.025843143
242	0xbce51b7b	-0.027967205
243	0xbd4cb9a7	-0.04998174
244	0x3d063f3c	0.03277515
245	0xbc82f9c8	-0.015988246
246	0x3c7b236e	0.015328271
247	0x3d108096	0.03527888
248	0xbd5d0297	-0.053957548
249	0x3c9c9748	0.019115105
250	0x3c4507cd	0.012025786
251	0xbcccb04e	-0.024986412
252	0xbce10d2a	-0.027472097
253	0xbd520848	-0.05127743
254	0x3b22ee1d	0.0024861165
255	0xbcbeacc2	-0.023275737

encoder.conv1.convs.<repo___rev_stars___user>.lin_l.weight f4 [64, 257]
0	0x3ae796d2	0.0017668849
1	0xbdf83d0f	-0.12121021
2	0x3d8a3bb2	0.06749667
3	0x3d12b548	0.035817415
4	0xbd724944	-0.059151903
5	0xbd975f5f	-0.073912375
6	0xbd1387f3	-0.036018323
7	0xbdc193e8	-0.09452039
8	0xbbecf3d6	-0.007231216
9	0xbd5920dd	-0.053009856
10	0xbd45b538	-0.048268527
11	0xbde54754	-0.111952454
12	0x3ca72b09	0.020406263
13	0xbc3bdf77	-0.011466852
14	0x3caaa889	0.020832317
15	0xbc1ebf1c	-0.009689119
16	0xbcb9ccfd	-0.022680754
17	0x3cb3828d	0.021912837
18	0x3d34c41f	0.04413235
19	0x3c845502	0.016153816
20	0xbc862f69	-0.016380029
21	0xbccf4c64	-0.02530498
22	0xbd6b6296	-0.057467066
23	0xbd4db6b7	-0.05022308
24	0x3d2167b0	0.039405525
25	0x3d72d60b	0.05928616
26	0xbd485477	-0.048908677
27	0xbc220388	-0.009888537
28	0x3cc8cd47	0.024511946
29	0xbcb1ea8d	-0.021718288
30	0x3c4e7d53	0.012603122
31	0xbdeace0d	-0.11465082
32	0xbc9e11a0	-0.019295514
33	0xbd1bc841	-0.038032774
34	0x3aa717c9	0.0012748177
35	0xbde06267	-0.10956269
36	0xbc6c1d4f	-0.014411285
37	0x399d2681	0.0002997406
38	0xbd5d18d1	-0.053978745
39	0x3cc2c4d3	0.023775494
40	0xbccaa5eb	-0.024737319
41	0x3ca8ef31	0.020621868
42	0xbbdf155b	-0.0068079657
43	0x3cace07e	0.02110314
44	0x3d73081f	0.059333917
45	0xbd392b90	-0.04520756
46	0xbd8b1b77	-0.06792348
47	0xbd84fdc1	-0.06493712
48	0x3d23a0cc	0.03994827
49	0xbc7f9a63	-0.0156007735
50	0xb99a6b58	-0.00029453146
51	0xbd9e0260	-0.07715297
52	0x3d668214	0.056276396
53	0x3c5706a5	0.013124143
54	0x3e7405b6	0.23830304
55	0x3d02091e	0.031746976
56	0x3daec0df	0.08532881
57	0xbcf0b8a5	-0.02938492
58	0xbc09d29e	-0.008412031
59	0xbd7dfb5a	-0.062007286
60	0xbd5c9b9c	-0.05385934
61	0x3d0705d2	0.032964535
62	0xbd6db154	-0.05803044
63	0xbcd8dd09	-0.026472585
64	0x3c07c2b7	0.00828617
65	0xbcac8fee	-0.021064725
66	0xbcccaa50	-0.024983555
67	0x3b81f924	0.0039664675
68	0xbb3d7b18	-0.002891248
69	0xbe0168ec	-0.12637681
70	0xbd0f558c	-0.034993693
71	0x3e324554	0.17409259
72	0x3c8fd03e	0.017555352
73	0x3adf2748	0.0017025257
74	0xbdcc5b75	-0.099783815
75	0xbd0b117e	-0.03395223
76	0x3c65c5fc	0.014024254
77	0xbd468ac6	-0.04847219
78	0xbc0b8900	-0.00851655
79	0x3c86737d	0.016412491
80	0x3c69d929	0.014272966
81	0xbcaad49b	-0.020853331
82	0xb9454b73	-0.00018815491
83	0x3ccb1f86	0.024795305
84	0xbdbf3228	-0.093357384
85	0xbd7b77c4	-0.061393514
86	0xbd59164c	-0.05299978
87	0x3daad554	0.0834147
88	0xbd7767cd	-0.060401727
89	0xbe008dc1	-0.12554075
90	0xbd8c58ad	-0.06852851
91	0x3d3f837e	0.04675626
92	0x3c595b26	0.01326636
93	0x3cc5645b	0.024095705
94	0xbd2e9a75	-0.04262777
95	0xbd819cac	-0.06328711
96	0x39fbe92b	0.00048048174
97	0x3d1d3f0e	0.03839021
98	0xbb2ccc70	-0.0026366971
99	0xbce5338c	-0.027978681
100	0x3d0c1b0c	0.03420548
101	0xbd8b13e5	-0.06790904
102	0xbd51543e	-0.05110573
103	0xbd38de2c	-0.045133755
104	0x3d176c69	0.036968622
105	0x3d2bed23	0.041974198
106	0xbbd88d05	-0.0066086077
107	0xbd47eb7c	-0.04880856
108	0x3cdd6f3c	0.02703058
109	0xbd87c066	-0.06628494
110	0x3a592fe2	0.0008285028
111	0xbd20e19d	-0.03927766
112	0x3dac101a	0.08401509
113	0x3d889e65	0.06670836
114	0xbbcb4d7f	-0.0062043066
115	0xbb767056	-0.0037603579
116	0x3c3ab2de	0.011395184
117	0x3cc3c8df	0.023899494
118	0x3b8cfc14	0.004302511
119	0xbdbc570f	-0.091962926
120	0xbc3d77fa	-0.011564249
121	0x3bc20f71	0.005922251
122	0x3ced3c99	0.02895956
123	0xbd9a5167	-0.075350575
124	0xbde9649d	-0.113961436
125	0x3ccfb756	0.025355976
126	0xbd5173e0	-0.051135898
127	0xbcc7fd8f	-0.024412898
128	0x3b96bcc5	0.00460014
129	0x3c8124f6	0.015764695
130	0x3d273240	0.040819407
131	0x3ba7d74a	0.0051221
132	0x3b142202	0.0022603278
133	0xbc9f143e	-0.019418832
134	0x3c9aded0	0.018905073
135	0x3d29f5b1	0.041494075
136	0x3d518ad3	0.051157784
137	0xbcd3c301	-0.025849821
138	0x3966a6ca	0.00021996643
139	0x3d2e64f9	0.042576764
140	0x3d21f07e	0.03953599
141	0x3c8ad979	0.016949402
142	0xbd3054d0	-0.043049634
143	0x3cdbff78	0.026855215
144	0xbd322cd0	-0.043499768
145	0x3c94e09e	0.018173512
146	0xbd0ba2f2	-0.034090944
147	0x3cbc0e59	0.02295606
148	0xbce28bcf	-0.027654557
149	0xbcbab36e	-0.022790637
150	0x3d17ea64	0.037088767
151	0x3d2344ee	0.03986066
152	0x3cc07183	0.023491627
153	0x3d20d383	0.039264213
154	0x3cf3a9ae	0.029743996
155	0x3d597119	0.053086374
156	0xbd579d88	-0.052640468
157	0xbd2c8cfb	-0.042126637
158	0x3b93a381	0.004505575
159	0xbc51e528	-0.012810983
160	0xbc8607ad	-0.016361082
161	0xbd6dd1b9	-0.058061335
162	0xbc259dde	-0.010108439
163	0x3c9da010	0.019241363
164	0xbd2b5e50	-0.04183799
165	0xbc9a74c1	-0.0188545
166	0xbd56540b	-0.052326243
167	0xbbdc77d0	-0.00672815
168	0xbc5af611	-0.013364331
169	0xbb9410ca	-0.004518603
170	0x3d55adae	0.052167587
171	0xbc31b16e	-0.010845525
172	0x3b775cd1	0.0037744532
173	0x3d36f0e1	0.044663314
174	0x3c631084	0.013858918
175	0xbd3b35bf	-0.045705553
176	0x3b172302	0.0023061638
177	0xbbbe538f	-0.005808301
178	0x3ca59a30	0.020215124
179	0xbd7859b6	-0.06063243
180	0x3c5967a8	0.0132693425
181	0xbc9ca9db	-0.019123962
182	0x3d7a0e60	0.061048865
183	0xbd9c3bb0	-0.07628572
184	0xbca09230	-0.019600958
185	0xbccbd2dc	-0.024880819
186	0xbd15d72d	-0.03658216
187	0xbd0e0034	-0.034668162
188	0xbc8ae9c1	-0.016957166
189	0x3cb9efd4	0.022697367
190	0xbc45187d	-0.012029764
191	0x3d7d30c8	0.0618141
192	0x3d795bb0	0.060878456
193	0x3d7d836a	0.061892904
194	0x3ce1f1a8	0.027581051
195	0x3d59dfd2	0.053191967
196	0x3c5c7093	0.013454574
197	0x3cad36d2	0.021144304
198	0x3d3e2a85	0.04642727
199	0x3d75ad3c	0.059979662
200	0x3d3ff58d	0.046865035
201	0x3d24627d	0.04013299
202	0x3c0f3141	0.00873977
203	0x3d4c8f30	0.04994124
204	0xbc914418	-0.017732665
205	0x3d3a1c65	0.045437235
206	0x3b787aa2	0.0037914892
207	0x3d1cf101	0.038315777
208	0xbc839ff5	-0.016067484
209	0x3d21eef3	0.03953452
210	0x3d5fde5d	0.05465542
211	0x3c4e0687	0.012574798
212	0x3cb09195	0.021553794
213	0xbd764d98	-0.060132593
214	0xbd6f9ccc	-0.058499143
215	0x3d0f36cf	0.03496438
216	0xbd4082c1	-0.046999697
217	0x3d321ab5	0.0434825
218	0x3cfc3e79	0.030791508
219	0x3d6e0cb4	0.058117583
220	0xbcb9e4bd	-0.022692079
221	0x3d0be7ab	0.034156483
222	0x3e40829c	0.18799824
223	0x3d53be54	0.051695183
224	0xba841d82	-0.0010079595
225	0x3d25cf29	0.040480766
226	0xbbcdacb4	-0.0062766913
227	0xbce2b24f	-0.027672915
228	0xba8350a8	-0.0010018544
229	0x3c84e8c8	0.01622428
230	0xbd4313ef	-0.047626432
231	0x3bc9b73e	0.0061558774
232	0xbc291b9f	-0.010321527
233	0x3bb3d78b	0.005488341
234	0xbbaedc48	-0.005336318
235	0x3c5c6fe4	0.013454411
236	0x3d2aeb0a	0.041728057
237	0xbd28e4a3	-0.04123367
238	0xbd3b36f0	-0.04570669
239	0xbd616625	-0.055029053
240	0x3bc5995c	0.0060302448
241	0x3c86f158	0.016472504
242	0xbd199821	-0.037498597
243	0xbd365ea0	-0.044523835
244	0x3c445ddf	0.011985271
245	0x3cf8f491	0.030390056
246	0x3ccceabc	0.025014274
247	0x3d6fc54e	0.058537774
248	0xbcd1fb49	-0.025632517
249	0xbcf039b5	-0.029324392
250	0x3cf0a2b9	0.029374467
251	0xbbd976c0	-0.0066364706
252	0xbd79a0ad	-0.060944248
253	0xbd237a4d	-0.039911557
254	0xb9fef8a4	-0.00048631907
255	0xbc7bc038	-0.015365653

encoder.conv1.convs.<repo___rev_stars___user>.lin_l.bias f4 [64]
0	0xbcc8cc7b	-0.024511566
1	0x3c373622	0.01118234
2	0x3de677d0	0.11253321
3	0xbd735e94	-0.05941637
4	0xbc2eff7c	-0.010681029
5	0x3dd441d6	0.1036412
6	0xbe67c6f3	-0.22634487
7	0xbe21e44c	-0.15809745
8	0x3dd064ca	0.10175474
9	0x3d53da6e	0.051721983
10	0x3a058789	0.00050937437
11	0x3e2ab798	0.16671598
12	0x3df9cad5	0.1219689
13	0xbd8c42aa	-0.06848653
14	0xbe73ce1c	-0.23809093
15	0xbd28d8da	-0.04122243
16	0xbe0da87c	-0.13833803
17	0xbd28aaec	-0.04117863
18	0x3e6ef6c3	0.2333632
19	0x3e100e4e	0.14067957
20	0x3de01182	0.10940839
21	0x3e2965dd	0.16542764
22	0x3ce07e02	0.027403835
23	0xbe48ca90	-0.19608521
24	0xbd6c57d5	-0.05770095
25	0x3e0f8764	0.14016491
26	0xbe081ea7	-0.13292943
27	0xba979554	-0.0011564889
28	0xbd504151	-0.05084354
29	0xbdf39fe7	-0.11895733
30	0xbdcd3c17	-0.10021227
31	0x3db29e0b	0.087215506
32	0x3e4d7e1b	0.20067637
33	0xbd45eb61	-0.048320178
34	0xbcbc6dff	-0.023001669
35	0xbd0c4871	-0.034248773
36	0xbdfd4093	-0.12365832
37	0xbd9eb092	-0.07748522
38	0xbc9f29b3	-0.019429063
39	0xbd7ea90e	-0.062172942
40	0xbc0cee2b	-0.008601706
41	0x3d2016c0	0.039084196
42	0xbdceec1a	-0.101036265
43	0xbeca9fcb	-0.39575037
44	0x3d065330	0.032794178
45	0xbe767e0d	-0.24071522
46	0x3a3a3dfa	0.0007104572
47	0xbd6b0e81	-0.05738688
48	0x3ce3fb04	0.027829655
49	0x3d41e015	0.047332842
50	0x3d7c58b6	0.06160804
51	0xbe317033	-0.17327957
52	0x3eb8df63	0.3610793
53	0xbde66931	-0.112505324
54	0x3d00fa40	0.031488657
55	0x3dd31c64	0.103081495
56	0xbd72c4bd	-0.059269655
57	0xbe2344e9	-0.15944256
58	0x3d24762f	0.04015177
59	0xbb049fcc	-0.0020236848
60	0xbde8c436	-0.11365549
61	0xbd4bc3ca	-0.049747266
62	0x3e2a17a6	0.16610584
63	0x3e681fd7	0.22668396

encoder.conv1.convs.<repo___rev_stars___user>.lin_r.weight f4 [64, 128]
0	0xbd638f99	-0.055556867
1	0xbd4bbc4f	-0.049740132
2	0xbdf616ec	-0.12016091
3	0xbd502261	-0.050814036
4	0xbdff32c1	-0.124608524
5	0xbd8686c1	-0.06568671
6	0xbe109e40	-0.14122868
7	0xbda25b4c	-0.0792757
8	0xbc0cc092	-0.008590834
9	0x3ce5d45f	0.028055368
10	0xbdadedf2	-0.0849265
11	0x3c2f2a0f	0.01069118
12	0xbdb14c5e	-0.08657144
13	0x3d1234b8	0.035694808
14	0xbcf244f4	-0.029573895
15	0x3c8025c3	0.015643006
16	0xbcb2cc09	-0.021825807
17	0xbdf4318c	-0.11923513
18	0x3d6a21af	0.05716103
19	0x3d8a8ed6	0.06765525
20	0xbe2f411c	-0.17114681
21	0xbd903dcd	-0.070430376
22	0xbe6584bc	-0.22413915
23	0x3d86c80b	0.06581124
24	0xbc3afff8	-0.011413567
25	0x3dd907b4	0.105971724
26	0x3db6215a	0.0889308
27	0xbdcb090e	-0.099138364
28	0xbc3300f1	-0.010925517
29	0xbda4431a	-0.08020611
30	0x3c6485e2	0.013947936
31	0x3d17e269	0.037081156
32	0x3d07836b	0.033084314
33	0xbd911f01	-0.07085992
34	0x39a00e68	0.00030528312
35	0xbe2fa33a	-0.1715211
36	0xbe3e7f02	-0.18603137
37	0xbdddfe7e	-0.10839556
38	0xbd6645cc	-0.056218907
39	0x3c5286c6	0.012849515
40	0xbdf53c63	-0.119744085
41	0xbcb09859	-0.02155702
42	0xbd0a9f55	-0.033843357
43	0xbded590a	-0.115892485
44	0xbe38c9b0	-0.18045688
45	0xbdfd316a	-0.123629406
46	0xbb896f46	-0.004194173
47	0xbda4f828	-0.080551445
48	0xbd5228e2	-0.05130852
49	0xbdc5a653	-0.096508645
50	0x3d4f203d	0.050567854
51	0xbd4c6e4e	-0.049909882
52	0xbda2728e	-0.07932006
53	0xbd012ad3	-0.03153498
54	0xbce6a8cb	-0.028156659
55	0xbd074d9e	-0.033033006
56	0xbdd8fb23	-0.105947755
57	0xbd1565da	-0.036474086
58	0xbd366d5f	-0.0445379
59	0xba5da304	-0.0008454772
60	0xbda4e535	-0.0805153
61	0x3d3af1fc	0.04564093
62	0xbd5ee5ef	-0.0544185
63	0xbde8b6fc	-0.113630265
64	0x3cba0667	0.022708131
65	0xbc449b91	-0.011999981
66	0x3cb50448	0.022096768
67	0xbe2c7e8a	-0.16845146
68	0xbbc67168	-0.0060559995
69	0xbd304a6e	-0.04303973
70	0xbd562935	-0.05228539
71	0xbe48fbb6	-0.1962727
72	0x3d9da799	0.07697982
73	0xbb6b4447	-0.003589885
74	0xbd83ce72	-0.06435861
75	0x3d05575e	0.032554023
76	0x3e1ee71b	0.15517847
77	0xbd575311	-0.052569453
78	0x3bc4dc96	0.006007741
79	0xbda4119f	-0.080111735
80	0x3c327cc8	0.010894008
81	0xbe1bec67	-0.15226899
82	0xbe2acba8	-0.16679251
83	0xbe2d3f37	-0.16918646
84	0xbe30dd23	-0.17271857
85	0xbdef077d	-0.1167135
86	0xbcb24a42	-0.021763925
87	0xbe5a1d36	-0.21300206
88	0xbd060fb0	-0.032729805
89	0xbdd9d12e	-0.10635601
90	0x3c979044	0.018501408
91	0xbb99bccb	-0.0046916953
92	0xbc94dab6	-0.018170696
93	0x3d765e33	0.06014843
94	0x3cab7a71	0.020932408
95	0xbdfd81db	-0.123782836
96	0xbd7000a3	-0.058594357
97	0x3d35c398	0.044375986
98	0xbded8ac7	-0.11598735
99	0x3c83ed5f	0.016104398
100	0xbd0e6159	-0.034760807
101	0xbd9c91f6	-0.07645027
102	0x3ec9e3f2	0.3943172
103	0xbdd7b970	-0.10533416
104	0xbd807514	-0.06272331
105	0x3dae7fa6	0.08520441
106	0xbba2c702	-0.0049675712
107	0xbd574abc	-0.052561507
108	0xbdb8f6d9	-0.090314575
109	0xbd8cc8d1	-0.0687424
110	0xbdd5be82	-0.10436727
111	0xbd908e8e	-0.0705844
112	0xbdccade4	-0.099941045
113	0xbcbe7c25	-0.023252556
114	0xbd993f4a	-0.074827746
115	0x3d4bffc3	0.04980446
116	0xbdc385ce	-0.095470056
117	0xbd9dd8cc	-0.07707366
118	0xbe4b6baf	-0.19865297
119	0xbd867d74	-0.06566897
120	0xbcca3507	-0.024683489
121	0xbe036b48	-0.12833893
122	0xbdb5c565	-0.08875541
123	0xbd57cb81	-0.05268431
124	0xbd90bd9e	-0.070674166
125	0x3e5407d9	0.20706119
126	0xbe82422a	-0.25441104
127	0xbc7b1ea6	-0.015327131
128	0xbd189344	-0.03724982
129	0xbddea809	-0.10871894
130	0x3cf336ed	0.029689277
131	0x3d86e4b5	0.06586591
132	0xbe17fc7d	-0.1484241
133	0xbdb0763d	-0.08616302
134	0x3d49e62a	0.049291767
135	0xbd2031cd	-0.039109994
136	0x3e1d841c	0.15382427
137	0x3d25863e	0.040411226
138	0x3dec0cf4	0.11525908
139	0x3e176fd2	0.1478875
140	0x3d590337	0.05298158
141	0xbceefc83	-0.029173141
142	0xbca33398	-0.019922063
143	0x3dc4559a	0.0958664
144	0x3e3309d2	0.17484215
145	0x3d45b464	0.048267737
146	0x3d94a1f5	0.07257453
147	0x3e0b5862	0.13607934
148	0xbd2d0cde	-0.0422486
149	0x3db97a64	0.09056547
150	0xbeaab548	-0.33341432
151	0x3db2e128	0.087343514
152	0xbcc8274b	-0.024432799
153	0x3cf31e63	0.029677575
154	0x3e03cf07	0.12871943
155	0x3e0949f2	0.13407114
156	0x3dd1a389	0.1023627
157	0xbe81bdca	-0.2534011
158	0x3e3220fa	0.17395392
159	0x3d981f24	0.074278146
160	0x3e376593	0.17909841
161	0x3d3e72d3	0.046496224
162	0x3deac302	0.11462976
163	0x3dd1ea79	0.102498
164	0xbda4d649	-0.08048684
165	0x3e9a46ba	0.30132085
166	0xbdb949a7	-0.09047251
167	0xbd441d50	-0.047879517
168	0xbc6351bb	-0.0138744665
169	0x3d1ceadb	0.038309913
170	0x3e651e78	0.22374904
171	0x3dcaedc4	0.099086314
172	0xbe83dff5	-0.25756803
173	0xbd16a70e	-0.03678041
174	0x3d741f98	0.059600443
175	0x3c850810	0.016239196
176	0xbc187cde	-0.009307114
177	0x3e41318c	0.18866557
178	0x3cc593f0	0.024118394
179	0xbc6e6184	-0.014549617
180	0x3e116d7b	0.1420192
181	0x3e18ec81	0.14933969
182	0x3dcf3442	0.10117389
183	0x3dff2203	0.12457659
184	0x3d4cdd4e	0.05001574
185	0xbdd41ad6	-0.10356681
186	0x3d24c03f	0.040222403
187	0x3c8e633e	0.017381307
188	0x3dd81f6b	0.105528675
189	0x3e30bc12	0.17259243
190	0x3d26e989	0.04075006
191	0xbde45e07	-0.11150747
192	0x3ce141a6	0.027497124
193	0x3e507c1e	0.20359847
194	0x3e3a436f	0.18189786
195	0x3d80996e	0.062792644
196	0x3dbed01a	0.09317036
197	0x3e89a5da	0.26884347
198	0x3da0cd30	0.078516364
199	0xbe447934	-0.1918686
200	0xbd8c7920	-0.0685904
201	0x3e5d7520	0.21626711
202	0xbd58be4d	-0.05291586
203	0x3dbe05f5	0.0927848
204	0x3dab6443	0.08368733
205	0xbe2cec43	-0.16887002
206	0x3db76458	0.08954686
207	0x3dece818	0.11567706
208	0xbdd03fe4	-0.10168436
209	0x3cc96182	0.024582628
210	0xbd0f2049	-0.0349429
211	0x3d55bbcf	0.05218106
212	0x3e25cbde	0.1619105
213	0x3e2fa351	0.17152144
214	0x3d04e3fa	0.032443978
215	0xbe6bdfdc	-0.23034614
216	0x3d980e72	0.0742463
217	0xbd918bba	-0.07106729
218	0x3e028c5d	0.12748857
219	0x3d9944f1	0.07483853
220	0x3d295c73	0.041347932
221	0xbe140885	-0.14456375
222	0x3d881256	0.06644122
223	0xbe1f5727	-0.1556059
224	0x3ddad23a	0.10684629
225	0x3e300bff	0.17192076
226	0x3dcabdb8	0.09899467
227	0x3c36c7ea	0.011156062
228	0xbd860e74	-0.065457255
229	0x3da1ece2	0.0790651
230	0x3db9f167	0.09079247
231	0xbdcbef77	-0.09957784
232	0x3e458153	0.19287615
233	0x3e1dd777	0.15414225
234	0x3e09b4e3	0.13447909
235	0xbda3c86b	-0.07997211
236	0x3dfa0536	0.12208025
237	0x3d3e9a1e	0.046533696
238	0x3dc5c688	0.096570075
239	0x3cc65c62	0.024213973
240	0x3df6985e	0.120407805
241	0x3e1b31fa	0.15155783
242	0x3d73a581	0.05948401
243	0x3e8d6e54	0.27623236
244	0xbe07fc1d	-0.13279767
245	0xbc7d4ec3	-0.015460673
246	0xbdd7db8f	-0.10539924
247	0x3d922dc0	0.07137632
248	0x3e123b46	0.14280424
249	0xbdc41eeb	-0.0957621
250	0x3d7a1092	0.06105096
251	0xbc92dc9b	-0.017927459
252	0x3d286c11	0.041118685
253	0x3dd7ab4b	0.105307184
254	0xbe7c1e2a	-0.24620882
255	0x3d933623	0.0718806

encoder.conv2.convs.<user___stars___repo>.lin_l.weight f4 [32, 64]
0	0xbe064b07	-0.13114558
1	0x3d902bac	0.0703958
2	0xbd96ed1a	-0.07369442
3	0xbdd0c87c	-0.10194489
4	0xbd917d5c	-0.071039885
5	0x3c515fb9	0.01277917
6	0xbdc339b5	-0.09532491
7	0x3d0ed879	0.034874413
8	0x3d897437	0.06711619
9	0xbd827234	-0.06369439
10	0xbd761004	-0.060073867
11	0x3e03c1fe	0.12866971
12	0x3da81800	0.08207703
13	0x3d928512	0.071542874
14	0x3d1417d4	0.036155537
15	0x3cea519d	0.02860337
16	0xbdb127fc	-0.086502045
17	0x3d26de39	0.04073927
18	0x3dd5473d	0.10413978
19	0x3db6ebb5	0.08931676
20	0x3e07f39d	0.13276525
21	0x3db34556	0.08753459
22	0xbcfa4c93	-0.030554092
23	0x3d2b290c	0.041787192
24	0xbc4e0e25	-0.0125766145
25	0x3db9ed1d	0.09078429
26	0xbd89d6c4	-0.067304164
27	0x3cc61d09	0.024183767
28	0xbd657428	-0.05601898
29	0x3d11c742	0.035590418
30	0xbe0320f9	-0.12805547
31	0x3ca799e6	0.020459127
32	0x3dca33a7	0.09873133
33	0xbd426856	-0.047462784
34	0xbe28aedb	-0.16472952
35	0xbdbfcee2	-0.09365632
36	0x3d073d8c	0.03301768
37	0x3d6e0918	0.05811414
38	0x3df73bb6	0.12071936
39	0x3d87c224	0.06628826
40	0x3d17a9e3	0.03702725
41	0xbcdf7ee0	-0.027282178
42	0xbda3ec32	-0.08004035
43	0xbcaebd17	-0.0213304
44	0xbd715ac9	-0.05892447
45	0xbcad5346	-0.021157872
46	0x3d4adcf2	0.049527116
47	0xbd8cd150	-0.06875861
48	0x3dc983ff	0.098396294
49	0x3e077a76	0.13230309
50	0xbdb60953	-0.08888497
51	0xbdece45c	-0.115669936
52	0xbd9f43bf	-0.077765934
53	0x3d1e36cf	0.03862649
54	0xbc9ffad7	-0.01952879
55	0x3d846dfa	0.06466289
56	0x3c949701	0.01813841
57	0x3d1e96cc	0.03871803
58	0xbdbfa5b9	-0.09357781
59	0xbd003da5	-0.03130879
60	0xba4473e5	-0.0007494076
61	0x3df7eaa5	0.12105302
62	0xbd284d62	-0.041089423
63	0xbcbd0886	-0.023075353
64	0x3e06e3f6	0.13172898
65	0x3db7f696	0.089825794
66	0xbd8eb03a	-0.06967206
67	0xbda9aeb6	-0.082852766
68	0x3c5bb346	0.013409441
69	0xbdaf7fe4	-0.08569315
70	0xbd739464	-0.05946769
71	0x3c2a9a21	0.010412724
72	0x3d139778	0.036033124
73	0x3bf639d6	0.007514219
74	0xbd8de5e4	-0.06928614
75	0xbaaa7a0f	-0.0013006347
76	0x3d922182	0.07135297
77	0x3decfbc1	0.11571456
78	0x3d88b319	0.06674785
79	0x3d129bf6	0.035793267
80	0xbc559d84	-0.013038043
81	0xbe1f0bec	-0.15531892
82	0xbdb37547	-0.08762603
83	0xbdbad183	-0.091219924
84	0x3c8cf310	0.017205745
85	0x3d991d0e	0.07476245
86	0xbdf8379b	-0.12119981
87	0x3cae41db	0.021271637
88	0xbccf49e8	-0.025303796
89	0xbda1d139	-0.07901234
90	0x3e1d16fc	0.15340799
91	0xbd353820	-0.044242978
92	0x3d8e5c49	0.06951196
93	0x3e2d7742	0.16940024
94	0xbc30a896	-0.0107823815
95	0x3d0e9552	0.03481037
96	0x3da622fb	0.08112141
97	0x3d473a2a	0.048639454
98	0x3e01f064	0.12689358
99	0x3ddec328	0.10877067
100	0x3dd10cc3	0.10207512
101	0xbdd41212	-0.10355009
102	0xbd7f241c	-0.062290296
103	0x3d5a64c6	0.05331876
104	0x3c1d3d21	0.009597094
105	0xbdfeab1e	-0.12434982
106	0x3d2d67a5	0.04233517
107	0xbbbfe9c5	-0.005856725
108	0x3dd33c6c	0.10314259
109	0x3dd8f89c	0.105942935
110	0xbd5905b2	-0.052983947
111	0x3d4e5967	0.05037823
112	0xbe0b9125	-0.13629587
113	0xbd1291b9	-0.035783503
114	0x3e0bd2d8	0.1365465
115	0xbd840cbb	-0.06447741
116	0x3d9ffbaf	0.07811677
117	0xbcadf536	-0.02123509
118	0x3dc58014	0.096435696
119	0x3dcbc0a0	0.0994885
120	0x3d1b6acd	0.03794365
121	0x3cdd7373	0.02703259
122	0xbc336aa5	-0.010950719
123	0x3c81141b	0.015756657
124	0x3d343d47	0.04400375
125	0xbc08493a	-0.00831824
126	0xbc9f3770	-0.019435614
127	0x3d2638f3	0.040581655
128	0xbd7de083	-0.06198169
129	0xbd413199	-0.04716644
130	0x3d403644	0.04692675
131	0x3d5b2f4a	0.053511895
132	0x3ca9993e	0.020702954
133	0xbb51c690	-0.0032009222
134	0xbd9941bc	-0.07483241
135	0xbbf30fb0	-0.0074176416
136	0xbd0db67a	-0.03459785
137	0x3d9447d8	0.072402656
138	0x3d2e638c	0.042575404
139	0x3e0b6b90	0.1361525
140	0xbd5bcd5e	-0.05366265
141	0xbdddddcf	-0.10833322
142	0xbde17b0b	-0.11009797
143	0xbe105030	-0.14093089
144	0xbe182f94	-0.148619
145	0x3da57e56	0.08080737
146	0x3d3221ff	0.043489452
147	0x3d7b500a	0.061355628
148	0xbd938a4f	-0.07204115
149	0x3df6e669	0.12055666
150	0x3e0b6126	0.13611278
151	0x3bd62e72	0.0065362984
152	0x3d49cdde	0.049268596
153	0x3d4086e9	0.04700366
154	0xbc4d5463	-0.012532326
155	0x3a9ebca9	0.0012110668
156	0x3d66a1e6	0.056306742
157	0xbdb901e1	-0.090335615
158	0xbcc5e92b	-0.024159035
159	0xbd526ab5	-0.051371295
160	0x3c610056	0.01373299
161	0xbb8c6dd3	-0.004285553
162	0xbd653e12	-0.055967398
163	0xbc604cb7	-0.013690165
164	0xbd8eed4d	-0.06978855
165	0x3dc278a8	0.094956696
166	0x3ca429e5	0.020039508
167	0xbcf13f82	-0.029449228
168	0x3d0cfaae	0.034418754
169	0x3da95e4f	0.08269941
170	0xbb891a0e	-0.004184014
171	0xbcee94c6	-0.029123675
172	0xbe04ca72	-0.12967852
173	0xbce5a78a	-0.02803399
174	0xbda9e4d2	-0.08295597
175	0x3ae3e95c	0.0017388272
176	0x3d409010	0.04701239
177	0x3e01e496	0.12684855
178	0xbdb7fb8f	-0.08983528
179	0x3c46b77c	0.012128707
180	0x3c3c4fae	0.0114936065
181	0xbdba8db5	-0.0910906
182	0xbe0d0a3b	-0.13773434
183	0x3db902f8	0.09033769
184	0x3d729280	0.059221745
185	0xbd8bda02	-0.06828691
186	0x3d427a38	0.047479838
187	0x3cab9be4	0.020948358
188	0xbb512c7d	-0.0031917386
189	0x3db5050d	0.08838854
190	0x3dba6559	0.09101362
191	0x3d88bcce	0.06676637
192	0xbcbfdf52	-0.023421917
193	0x3d0388ed	0.032113004
194	0xbce6d232	-0.0281764
195	0xbd733f04	-0.05938627
196	0x3c35a013	0.011085528
197	0x3dd8cd3e	0.10586022
198	0x3d8091ea	0.06277831
199	0x3e0bda02	0.13657382
200	0x3dfde9e5	0.123981275
201	0x3d591d0b	0.053006213
202	0xbc452f77	-0.012035242
203	0x3d19b937	0.03753015
204	0x3dfb5f22	0.122740045
205	0xbd27207b	-0.04080246
206	0x3d4370a5	0.047714848
207	0xbd87c693	-0.06629672
208	0xbc00ff18	-0.007873319
209	0x3d8e4a32	0.069477454
210	0x3ce2304e	0.027610924
211	0x3dabeba2	0.08394553
212	0x3e038763	0.12844615
213	0x3d77146f	0.06032222
214	0x3d54a5fd	0.05191611
215	0xbdaa4c5b	-0.08315345
216	0xbe1644a5	-0.14674623
217	0xbd95e643	-0.073193096
218	0xbdf1110c	-0.117708296
219	0x3d5a5295	0.053301413
220	0x3c2c1bed	0.010504705
221	0x3d8499b0	0.06474626
222	0xbdd10d3e	-0.10207604
223	0xbc0c1128	-0.008549012
224	0xbc4441c8	-0.011978574
225	0xbdb6cac0	-0.0892539
226	0xbd199492	-0.037495203
227	0xbdfd6b21	-0.12373949
228	0xbd8486d5	-0.0647103
229	0xbde49451	-0.111611016
230	0x3d4579dc	0.048211917
231	0x3d59d94c	0.053185746
232	0x3db67d81	0.08910657
233	0x3d986ae9	0.074422665
234	0xbe0f08dd	-0.13968225
235	0xbdb7cfcc	-0.08975181
236	0x3d2ff4aa	0.04295794
237	0xbc49c27d	-0.012314436
238	0xbe0e8e0a	-0.13921371
239	0xbdde7867	-0.10862809
240	0x3c7e64eb	0.01552699
241	0xbdd7baf9	-0.10533709
242	0xbd4a0eae	-0.049330406
243	0x3c6b9228	0.014378108
244	0x3e1d539c	0.15363926
245	0x3d2a049b	0.0415083
246	0xbb3ed211	-0.0029116909
247	0x3d250661	0.040289287
248	0x3ba60d64	0.0050675143
249	0x3cc98592	0.024599824
250	0xbc429a2b	-0.011877577
251	0xbd8c9e10	-0.068660855
252	0x3be3b93f	0.0069495733
253	0x3d5cbe5c	0.05389248
254	0xbdbd3ecf	-0.092404954
255	0x3e0f52c0	0.1399641

encoder.conv2.convs.<user___stars___repo>.lin_l.bias f4 [32]
0	0x3b7a9634	0.00382365
1	0x3e8a9d39	0.27073076
2	0x3e8027c7	0.25030348
3	0x3e9e8e48	0.30967927
4	0x3e05e695	0.13076241
5	0x3e82f3d7	0.2557666
6	0xbe8128f1	-0.25226548
7	0xbd77bb5a	-0.060481407
8	0x3e5b86d2	0.21438149
9	0xbef309f6	-0.47468537
10	0xbdd0155f	-0.10160326
11	0xbddc8a51	-0.10768569
12	0xbe81c6ec	-0.25347078
13	0xbdb3a141	-0.08770991
14	0xbe259f69	-0.16174091
15	0xbd4fdbdd	-0.050746787
16	0x3d827419	0.063698
17	0xbd71a83e	-0.05899834
18	0x3e4e6d7a	0.2015895
19	0xbe54e0ed	-0.20788927
20	0xbe675f8e	-0.22595045
21	0xbeb04529	-0.34427765
22	0x3e05c338	0.13062751
23	0x3f05c8f6	0.5225977
24	0x3e1a4556	0.15065512
25	0x3e567c91	0.20945956
26	0xbd87b631	-0.06626547
27	0xbdfab648	-0.12241799
28	0x3e1137f5	0.14181502
29	0xbe4b6fd7	-0.19866882
30	0xbe8a48df	-0.2700872
31	0xbb9202d2	-0.0044559026

encoder.conv2.convs.<user___stars___repo>.lin_r.weight f4 [32, 64]
0	0x3cc0c616	0.023531955
1	0xbb93cf3d	-0.0045107887
2	0x3c739cae	0.014868898
3	0x3db1b17a	0.08676429
4	0xbd2acc3c	-0.04169868
5	0xbd2ad720	-0.041709065
6	0x3ceedc5c	0.02915781
7	0xbdd04a4f	-0.10170423
8	0xbd262f6e	-0.040572576
9	0x3ce0b300	0.027429104
10	0xbe08311f	-0.13299988
11	0x3d81234a	0.06305559
12	0xbe0be802	-0.13662723
13	0xbd47f8e3	-0.04882134
14	0xbc57286c	-0.013132196
15	0xbda7bd17	-0.08190363
16	0x3b0a499c	0.0021101004
17	0x3e08cb2a	0.13358751
18	0xbdb90f94	-0.090361744
19	0x3d0100c4	0.03149487
20	0x3ddefd8d	0.10888205
21	0x3ca05008	0.019569412
22	0xbccc5d93	-0.024946963
23	0x3db2778c	0.08714208
24	0xbda5cfce	-0.08096276
25	0xbdfdff17	-0.1240217
26	0xbda6f6b8	-0.081525266
27	0xbd5c39e3	-0.053766143
28	0xbc120e28	-0.008914508
29	0x3be2f51d	0.0069261924
30	0x3d1a538e	0.03767734
31	0x3d8643a3	0.065558694
32	0xbd24fd1c	-0.040280446
33	0xbd4adff4	-0.049529985
34	0x3d83806f	0.06420981
35	0x3dce9001	0.1008606
36	0x3db23e6f	0.087033145
37	0xbdf346df	-0.11878752
38	0x3d958aab	0.073018394
39	0xbe25a864	-0.16177517
40	0xbe0aa434	-0.13539201
41	0xbc4f84e3	-0.01266596
42	0x3d899b44	0.06719068
43	0xbdcbf4b8	-0.09958786
44	0x3c9d6799	0.019214438
45	0x3d5b1189	0.05348352
46	0xbd5b9c56	-0.05361589
47	0xbdc6b64e	-0.097027406
48	0x3e3864e7	0.18007241
49	0xbe13f675	-0.14449485
50	0x3d892c6c	0.06697926
51	0xbd2d65f5	-0.042333562
52	0x3d6183a3	0.05505718
53	0x3cf6f712	0.03014711
54	0x3d9922b7	0.074773245
55	0x3d2f0ee3	0.042738806
56	0x3e1358c4	0.1438933
57	0xbdd7d395	-0.10538403
58	0x3c0ea399	0.008705997
59	0xbdae6e88	-0.08517176
60	0xbd7f6988	-0.0623565
61	0xbd36843e	-0.04455971
62	0xbe0ba25d	-0.13636155
63	0xbdc677df	-0.09690832
64	0xbbf3eb45	-0.007443818
65	0x3bf04f7a	0.007333693
66	0x3d32b82a	0.043632664
67	0xbdb0f471	-0.086403735
68	0xbd8970a1	-0.067109354
69	0x3adfbe5b	0.001707028
70	0x3de6fdc2	0.11278869
71	0xbd85a90a	-0.06526382
72	0x3dafde21	0.085872896
73	0x3dad7020	0.08468652
74	0xbdab51eb	-0.08365234
75	0x3e1e114c	0.15436286
76	0x3cfd3abc	0.030911796
77	0x3d786104	0.060639396
78	0x3d9649fa	0.07338329
79	0xbd9638d9	-0.073350616
80	0x3c63be5e	0.013900368
81	0x3d29c389	0.041446242
82	0xbbfdb08f	-0.0077419947
83	0x3de95686	0.11393456
84	0xbd1d62e2	-0.03842438
85	0x3cc272f0	0.023736447
86	0x3d7870d1	0.060654465
87	0xbd7d567c	-0.061850056
88	0xbca788e9	-0.020451026
89	0xbd681528	-0.0566608
90	0xbda53004	-0.08065799
91	0xbd395682	-0.045248516
92	0x3e051d92	0.12999561
93	0x3da83f46	0.082151935
94	0x3d77d647	0.060507085
95	0xbde0d65e	-0.10978387
96	0xbe1a5120	-0.15070009
97	0x3ccbcdbe	0.024878379
98	0xbbedf870	-0.007262282
99	0x3d2d0055	0.042236645
100	0x3dd0015a	0.10156508
101	0xbd68ab2c	-0.056803867
102	0xbd33eb64	-0.043925658
103	0xbd72135b	-0.05910049
104	0xbda6cd9b	-0.08144685
105	0x3db12a56	0.08650653
106	0xbd6e7128	-0.058213383
107	0xbd8f9272	-0.07010354
108	0xbe1ae576	-0.15126595
109	0x3d0901fe	0.033449166
110	0xbd12d4c3	-0.035847437
111	0x3e15ff4e	0.14648172
112	0xbdbe9907	-0.093065314
113	0x3dc4926e	0.09598242
114	0x3e04e0f9	0.12976445
115	0xbd8c0a33	-0.06837883
116	0xbd01aeb9	-0.03166077
117	0x3d608762	0.05481661
118	0x3e0b0e22	0.1357961
119	0xbd9733d7	-0.073829345
120	0xbd400556	-0.04688009
121	0x3decf365	0.11569861
122	0xbd594918	-0.053048223
123	0x3b41f89a	0.002959764
124	0x3db99154	0.09060922
125	0xbd78b9a2	-0.06072391
126	0x3dae519d	0.0851166
127	0xbd16bd0f	-0.036801394
128	0xbe19bcce	-0.1501343
129	0x3e15d895	0.146334
130	0x3d5d6be5	0.054057974
131	0x3e18f0e2	0.1493564
132	0xbd0922f3	-0.033480596
133	0xbd2da95a	-0.042397834
134	0xbdc13cb8	-0.09435409
135	0xbce11321	-0.027474942
136	0x3d9c2c40	0.076256275
137	0x3bd83ddd	0.0065991716
138	0x3cf2f112	0.029655967
139	0xbcf985b4	-0.030459262
140	0x3cf4d02e	0.029884424
141	0x3d0f9c2a	0.03506104
142	0xbdc4828f	-0.095952146
143	0x3c84fb4f	0.016233115
144	0xbd0006ca	-0.031256475
145	0xbdbb0b12	-0.09132971
146	0xbd491750	-0.0490945
147	0xbe0b8820	-0.13626146
148	0x3d633267	0.05546799
149	0x3da84f29	0.082182236
150	0x3c570473	0.013123619
151	0xbd7c128e	-0.061541133
152	0x3da1de2d	0.07903705
153	0xbcf43c41	-0.029813888
154	0x3d30f8ed	0.043206144
155	0xbdb65791	-0.08903421
156	0xbdc48990	-0.095965505
157	0xbd37bd09	-0.044858012
158	0xbe1539b3	-0.14572792
159	0xbca659ff	-0.020306585
160	0xbc8750d5	-0.016518036
161	0x3c520eb1	0.0128208855
162	0x3d316d4a	0.043317117
163	0x3dace2c3	0.08441689
164	0xbd8ebd8f	-0.06969749
165	0xbd73fa16	-0.059564672
166	0x3e015914	0.12631637
167	0xbd196c16	-0.037456594
168	0x3c877706	0.016536247
169	0xbcff881e	-0.031192835
170	0x3d2c7740	0.042105913
171	0x3d882d1b	0.06649228
172	0x3da29225	0.07938031
173	0x3e102584	0.14076811
174	0x3db76310	0.089544415
175	0x3c9dfa64	0.019284435
176	0x3d02f517	0.031972017
177	0x3cbaf1b9	0.02282034
178	0xbdd2d480	-0.102944374
179	0xbc5bd7ae	-0.013418121
180	0xbd962b23	-0.073324464
181	0x3d0092e3	0.031390082
182	0x3d7725e8	0.060338885
183	0xbc6a71dc	-0.014309373
184	0x3dc1ba5d	0.09459374
185	0xbd0f0ad2	-0.03492243
186	0x3d25addd	0.040449012
187	0xbe006535	-0.12538607
188	0xbd376fc0	-0.044784307
189	0x3dcc4a09	0.099750586
190	0x3ca5c349	0.02023472
191	0x3c5e4baa	0.013567844
192	0xbd3c489c	-0.045967683
193	0xbd80bbb9	-0.06285805
194	0x3e276e5d	0.16350694
195	0x3e0c75cd	0.13716812
196	0x3ca1e257	0.019761248
197	0x3dd42bf8	0.10359949
198	0x3d9d1cb5	0.07671491
199	0xbe0cd59a	-0.13753358
200	0x3d95e6b8	0.07319397
201	0x3d618e6a	0.055067457
202	0xbd057e8f	-0.0325914
203	0xbe013125	-0.12616403
204	0x3d32dc0f	0.043666895
205	0x3d65d189	0.05610803
206	0xbe059185	-0.13043793
207	0xbc29deb3	-0.010368037
208	0x3d8d14cf	0.068887345
209	0x3d3052a1	0.04304755
210	0xbd29bf1b	-0.041442018
211	0xbd3eec47	-0.04661205
212	0x3d7da288	0.06192258
213	0xbdd27f0b	-0.10278138
214	0x3d63eda3	0.05564655
215	0x3de4ecb7	0.11177962
216	0x39702dfe	0.00022905317
217	0xbdb91ac8	-0.09038311
218	0x3d86cf8b	0.065825544
219	0x3d44753e	0.047963373
220	0xbadf02fe	-0.0017014442
221	0xbde5aae0	-0.112142324
222	0xbd94f8f8	-0.072740495
223	0x3da6f820	0.08152795
224	0x3deddcca	0.11614378
225	0xbcefec9e	-0.029287633
226	0xbdb59ff7	-0.088684015
227	0x3c947abe	0.018124934
228	0xbdce2632	-0.10065879
229	0x3be0ca93	0.006860086
230	0xbd62576a	-0.055259146
231	0x3d882bb7	0.06648963
232	0x3dc364f5	0.095407404
233	0x3cf1e338	0.029527292
234	0xbc9ffd0d	-0.019529844
235	0x3d9b128f	0.07571899
236	0xbb82fa1e	-0.0039971014
237	0x3e168b61	0.14701606
238	0xbce753b8	-0.028238162
239	0x3d2007a9	0.039069805
240	0xbc9b8613	-0.01898483
241	0xbdef61dd	-0.11688588
242	0xbd06a22c	-0.032869503
243	0x3d60013c	0.054688677
244	0x3c703032	0.014659928
245	0x3e05cd11	0.13066508
246	0x3d89456e	0.06702696
247	0xbcd9020e	-0.026490238
248	0xbd78c63f	-0.060735937
249	0xbd18a807	-0.03726962
250	0x3e090ed5	0.13384564
251	0xbdeb9fd0	-0.11505091
252	0xbd2c472b	-0.04206006
253	0x3d35bf24	0.04437174
254	0xbddb2df0	-0.10702121
255	0x3c95c830	0.018283933
